g2p/resources/phoneme_embedding_en.pt (torch, 152861 bytes, 1 tensors)

weight f4 [74, 512]
1.2287543 -0.05437429 1.0628037 -0.84187293 1.0226614 2.4445326 1.1917958 0.6385867
0.9317236 0.56040937 -1.2441567 -0.07314292 0.4073084 0.087302044 0.10525775 -1.9347241
0.73497224 0.43366015 1.3671685 -0.98167384 0.41099408 -3.4533322 -0.77762115 -0.44488055
0.06998351 1.1496701 -0.38214844 -0.37636682 1.7565653 0.12234131 -0.09869124 -0.050406754
0.5038736 0.33565974 -0.02116534 -0.63453996 1.037136 -0.039648432 -0.9993441 -0.45139375
-1.9578056 0.2960504 2.0411427 -0.9862045 -1.5030911 -2.5806167 0.06613271 0.11230781
-0.28141946 -1.8921936 0.6107877 0.8953039 -1.8648224 -2.128365 1.345029 1.1218339
-0.21358034 0.90062135 -0.8323233 0.102162234 1.2227468 0.38501015 -0.5591659 1.528876
-1.607801 -0.3215444 2.5847757 1.2533739 -1.7097965 -0.6385062 0.44932517 -0.90398234
1.0269109 -0.58982116 0.3682904 -1.6297791 -0.1490215 -1.1756597 -0.022753073 -0.77575445
-2.2371998 -0.2049244 0.02382425 0.24175103 0.49033967 -1.0727081 -0.15498354 -0.56995726
-1.5030522 -0.33627915 0.41933146 -1.1316206 1.6370478 -0.28896883 -0.90962213 0.20148087
-1.1286219 -0.700084 -0.0042019254 -1.6541157 1.3370903 0.31333876 -0.81407344 1.9769483
-1.0783726 -0.06805468 -0.041368917 0.9561052 -1.5472403 -0.55503416 -0.44504648 0.5328974
-0.7357946 0.11310272 -0.047765817 0.70623076 0.2206686 -0.26511362 -0.63380617 0.36614317
1.4694754 1.6567943 -0.70969343 -1.1787155 -0.092691734 0.57670665 -0.042147685 0.60964006
-0.19299537 2.377826 -2.7087843 1.5660262 0.8744919 -2.4969292 -1.6915238 -1.0084993
0.9898507 -0.085825115 -0.29232365 -0.049886093 -0.43867877 1.3216996 -2.1429865 1.3208126
0.62881863 1.2780539 -0.24321765 -0.44483167 0.3379485 -0.7057948 1.16734 0.331196
-0.07559694 -0.62290967 0.5513617 -0.8615485 -0.3468214 1.9498008 0.035927184 0.92845273
0.01770871 1.5176599 1.0439943 0.7441986 0.5495728 0.30040216 0.54936975 0.2849837
-0.062978566 -0.019625492 0.28191403 0.22584635 -1.7498794 2.6754563 -1.5545001 1.0584109
0.23619394 0.40688246 -0.60310614 -0.0129695395 0.19267194 0.43096834 -0.16501185 -0.20110145
1.7842816 -0.1077714 0.70230675 1.8350999 0.91800654 -0.5511477 -0.65329325 -1.5180106
0.72680205 1.3254994 0.4006221 -1.9382429 0.70526254 -0.6390425 1.3104181 -0.14053993
1.3549675 0.49862164 -0.07060947 -0.9835206 0.02586977 0.54439855 -0.5893461 -0.7027529
-0.32111943 0.5803633 -0.27953717 -0.2962982 0.0036846232 -0.7222744 -1.0272593 1.9376885
-0.9196653 -0.6039362 0.5655925 -0.32610974 -2.1416724 -0.28923103 2.0056353 -1.3849734
0.5025759 -0.31905404 -0.67654854 0.9110923 0.1297591 -1.1210922 1.108485 0.3216826
-0.9308763 1.3239512 -0.16957515 0.69596255 1.1176238 0.076318145 0.2906336 1.15613
1.1698436 0.8989642 -0.6183332 1.0130309 0.08278403 -0.07422748 0.64367837 -0.13212876
-0.7678681 0.027591903 -0.8599936 0.7945868 0.5654613 0.0118149705 -0.6625614 -1.2254504
00000000: d247 9d3f 93b7 5ebd f409 883f fc84 57bf
00000010: 92e6 823f 3973 1c40 c48c 983f 6b7a 233f
00000020: 7085 6e3f fd76 0f3f 8740 9fbf f5cb 95bd
00000030: ba8a d03e 6acb b23d 6091 d73d 0aa5 f7bf
00000040: 2427 3c3f b408 de3e 61ff ae3f fa4e 7bbf
00000050: d16d d23e 6503 5dc0 2e12 47bf 62c7 e3be
00000060: 8453 8f3d 6428 933f f6a8 c3be 27b3 c0be
00000070: 22d7 e03f 158e fa3d a21e cabd 5077 4ebd
00000080: dcfd 003f 98db ab3e ef62 adbc 3671 22bf
00000090: dfc0 843f 6566 22bd 04d5 7fbf 151d e7be
000000a0: 6099 fabf eb93 973e 15a2 0240 e677 7cbf
000000b0: 4a65 c0bf d328 25c0 9670 873d a301 e63d
000000c0: 3616 90be 6633 f2bf 955c 1c3f a332 653f
000000d0: 80b2 eebf 2237 08c0 e929 ac3f 4198 8f3f
000000e0: ceb4 5abe 1f8f 663f 2413 55bf 6f3a d13d
000000f0: f882 9c3f 0d20 c53e 7f25 0fbf 35b2 c33f
00000100: 6ccc cdbf 78a1 a4be f76c 2540 8e6e a03f
00000110: 9dda dabf 2475 23bf f30d e63e 636b 67bf
00000120: d171 833f 85fe 16bf 8f90 bc3e 9a9c d0bf
00000130: 1899 18be 047c 96bf a764 babc d897 46bf
00000140: 482e 0fc0 b4d7 51be 132b c33c 958d 773e
00000150: cd0d fb3e 804e 89bf 01b4 1ebe b8e8 11bf
00000160: 0464 c0bf c82c acbe 9db2 d63e f2d8 90bf
00000170: c88a d13f b9f3 93be ffdc 68bf 0051 4e3e
00000180: af76 90bf b438 33bf 4eb0 89bb 10ba d3bf
00000190: c625 ab3f f06d a03e 1e67 50bf a40c fd3f
000001a0: 1d08 8abf 4160 8bbd 7472 29bd 4fc3 743f
000001b0: f80b c6bf b816 0ebf 22dd e3be f76b 083f
000001c0: 095d 3cbf 66a2 e73d 17a6 43bd 8acb 343f
000001d0: f3f6 613e f9bc 87be 1f41 22bf 1e77 bb3e
000001e0: c517 bc3f d611 d43f 78ae 35bf 26e0 96bf
000001f0: 2ad5 bdbd 0ca3 133f 0da3 2cbd 5f11 1c3f
00000200: 94a0 45be 4d2e 1840 b95c 2dc0 8c73 c83f
00000210: b3de 5f3f b0cd 1fc0 da83 d8bf 8116 81bf
00000220: db66 7d3f 14c5 afbd 72ab 95be 5c55 4cbd
00000230: 819a e0be 742d a93f b126 09c0 6310 a93f
00000240: 42fa 203f 4597 a33f 0c0e 79be fac0 e3be
00000250: 9607 ad3e f8ae 34bf 666b 953f 8692 a93e
00000260: 92d2 9abd 0277 1fbf 0a26 0d3f 718e 5cbf
00000270: 9392 b1be 1393 f93f 6228 133d 14af 6d3f
00000280: db11 913c ae42 c23f 9ba1 853f cd83 3e3f
00000290: ceb0 0c3f 50ce 993e 7fa3 0c3f 62e9 913e
000002a0: e8fa 80bd a4c5 a0bc 0957 903e 4444 673e
000002b0: 0cfc dfbf ad3a 2b40 dcf9 c6bf 027a 873f
000002c0: d3dc 713e e652 d03e 2a65 1abf 317e 54bc
000002d0: cb4b 453e e2a7 dc3e def8 28be 8aed 4dbe
000002e0: 5763 e43f 40b7 dcbd 60ca 333f 8ee4 ea3f
000002f0: 7a02 6b3f 0418 0dbf 3a3e 27bf 2c4e c2bf
00000300: b30f 3a3f f7a9 a93f 571e cd3e 5818 f8bf
00000310: 168c 343f 4a98 23bf c8bb a73f b3e9 0fbe
00000320: 936f ad3f 564b ff3e b39b 90bd 02c8 7bbf
00000330: d7ec d33c b45d 0b3f 63df 16bf 9de7 33bf
00000340: c469 a4be b092 143f 7f1f 8fbe 66b4 97be
00000350: b879 713b fae6 38bf 3c7d 83bf 2d06 f83f
00000360: 2f6f 6bbf 909b 1abf acca 103f dbf7 a6be
00000370: 2911 09c0 1716 94be 545c 0040 cf46 b1bf
00000380: d0a8 003f 0d5b a3be 4932 2dbf 583d 693f
00000390: 92df 043e f37f 8fbf d6e2 8d3f 95b3 a43e
000003a0: e94d 6ebf 3c77 a93f 1ca5 2dbe 9a2a 323f
000003b0: 4c0e 8f3f b04c 9c3d edcd 943e 11fc 933f
000003c0: 6fbd 953f 8522 663f 164b 1ebf ffaa 813f
000003d0: ac8a a93d 9404 98bd 1bc8 243f c34c 07be
000003e0: 0193 44bf 6a08 e23c 8a28 5cbf 0a6a 4b3f
000003f0: 12c2 103f 9493 413c a09d 29bf 8fdb 9cbf
